…
TRAINING:
  BASE_LR: 5e-05
  BATCH_SIZE: 8
  EVAL_EPOCH: 1
  LOSSES:
    BOOTSTRAP: False
    CRITERION: 
    MASK_CONSISTENCY: False
    MULTI_CLASS: False
    NAME: ['l1', 'gan']
    SCALE: []
    USE_IGNORE_MASK: False
  LR_SCHEDULERS: ['exponential', 'step']
  MAX_ITER: 90000
  NUM_EPOCHS: 100
  OPTIMISER: Adam
  PRECISION: mixed
  STEPS: (60000, 80000)
VERSION: 2
VIS_PERIOD: 0
----------------------------------------------------------------
        Layer (type)               Output Shape         Param #
================================================================
            Conv2d-1          [1, 64, 512, 512]           1,792
         LeakyReLU-2          [1, 64, 512, 512]               0
         LeakyReLU-3          [1, 64, 512, 512]               0
            Conv2d-4          [1, 64, 512, 512]          36,928
         LeakyReLU-5          [1, 64, 512, 512]               0
         LeakyReLU-6          [1, 64, 512, 512]               0
            Conv2d-7          [1, 64, 512, 512]           1,792
         LeakyReLU-8          [1, 64, 512, 512]               0
         LeakyReLU-9          [1, 64, 512, 512]               0
           Conv2d-10          [1, 64, 512, 512]          36,928
        LeakyReLU-11          [1, 64, 512, 512]               0
        LeakyReLU-12          [1, 64, 512, 512]               0
        MaxPool2d-13          [1, 64, 256, 256]               0
        MaxPool2d-14          [1, 64, 256, 256]               0
           Conv2d-15         [1, 128, 256, 256]          73,856
        LeakyReLU-16         [1, 128, 256, 256]               0
        LeakyReLU-17         [1, 128, 256, 256]               0
           Conv2d-18         [1, 128, 256, 256]         147,584
        LeakyReLU-19         [1, 128, 256, 256]               0
        LeakyReLU-20         [1, 128, 256, 256]               0
           Conv2d-21         [1, 128, 256, 256]          73,856
        LeakyReLU-22         [1, 128, 256, 256]               0
        LeakyReLU-23         [1, 128, 256, 256]               0
           Conv2d-24         [1, 128, 256, 256]         147,584
        LeakyReLU-25         [1, 128, 256, 256]               0
        LeakyReLU-26         [1, 128, 256, 256]               0
        MaxPool2d-27         [1, 128, 128, 128]               0
        MaxPool2d-28         [1, 128, 128, 128]               0
           Conv2d-29         [1, 256, 128, 128]         295,168
        LeakyReLU-30         [1, 256, 128, 128]               0
        LeakyReLU-31         [1, 256, 128, 128]               0
           Conv2d-32         [1, 256, 128, 128]         590,080
        LeakyReLU-33         [1, 256, 128, 128]               0
        LeakyReLU-34         [1, 256, 128, 128]               0
           Conv2d-35         [1, 256, 128, 128]         295,168
        LeakyReLU-36         [1, 256, 128, 128]               0
        LeakyReLU-37         [1, 256, 128, 128]               0
           Conv2d-38         [1, 256, 128, 128]         590,080
        LeakyReLU-39         [1, 256, 128, 128]               0
        LeakyReLU-40         [1, 256, 128, 128]               0
        MaxPool2d-41           [1, 256, 64, 64]               0
        MaxPool2d-42           [1, 256, 64, 64]               0
           Conv2d-43           [1, 512, 64, 64]       1,180,160
        LeakyReLU-44           [1, 512, 64, 64]               0
        LeakyReLU-45           [1, 512, 64, 64]               0
           Conv2d-46           [1, 512, 64, 64]       2,359,808
        LeakyReLU-47           [1, 512, 64, 64]               0
        LeakyReLU-48           [1, 512, 64, 64]               0
           Conv2d-49           [1, 512, 64, 64]       1,180,160
        LeakyReLU-50           [1, 512, 64, 64]               0
        LeakyReLU-51           [1, 512, 64, 64]               0
           Conv2d-52           [1, 512, 64, 64]       2,359,808
        LeakyReLU-53           [1, 512, 64, 64]               0
        LeakyReLU-54           [1, 512, 64, 64]               0
        MaxPool2d-55           [1, 512, 32, 32]               0
        MaxPool2d-56           [1, 512, 32, 32]               0
           Conv2d-57           [1, 512, 32, 32]       2,359,808
        LeakyReLU-58           [1, 512, 32, 32]               0
        LeakyReLU-59           [1, 512, 32, 32]               0
           Conv2d-60           [1, 512, 32, 32]       2,359,808
        LeakyReLU-61           [1, 512, 32, 32]               0
        LeakyReLU-62           [1, 512, 32, 32]               0
           Conv2d-63           [1, 512, 32, 32]       2,359,808
        LeakyReLU-64           [1, 512, 32, 32]               0
        LeakyReLU-65           [1, 512, 32, 32]               0
           Conv2d-66           [1, 512, 32, 32]       2,359,808
        LeakyReLU-67           [1, 512, 32, 32]               0
        LeakyReLU-68           [1, 512, 32, 32]               0
        MaxPool2d-69           [1, 512, 16, 16]               0
        MaxPool2d-70           [1, 512, 16, 16]               0
           Conv2d-71           [1, 512, 16, 16]       4,719,104
        LeakyReLU-72           [1, 512, 16, 16]               0
        LeakyReLU-73           [1, 512, 16, 16]               0
  ConvTranspose2d-74           [1, 256, 32, 32]       2,097,408
   InstanceNorm2d-75           [1, 256, 32, 32]               0
        LeakyReLU-76           [1, 256, 32, 32]               0
        LeakyReLU-77           [1, 256, 32, 32]               0
        UNetBlock-78          [1, 1280, 32, 32]               0
           Conv2d-79           [1, 512, 32, 32]       5,898,752
        LeakyReLU-80           [1, 512, 32, 32]               0
        LeakyReLU-81           [1, 512, 32, 32]               0
  ConvTranspose2d-82           [1, 256, 64, 64]       2,097,408
   InstanceNorm2d-83           [1, 256, 64, 64]               0
        LeakyReLU-84           [1, 256, 64, 64]               0
        LeakyReLU-85           [1, 256, 64, 64]               0
        UNetBlock-86          [1, 1280, 64, 64]               0
           Conv2d-87           [1, 512, 64, 64]       5,898,752
        LeakyReLU-88           [1, 512, 64, 64]               0
        LeakyReLU-89           [1, 512, 64, 64]               0
  ConvTranspose2d-90         [1, 256, 128, 128]       2,097,408
   InstanceNorm2d-91         [1, 256, 128, 128]               0
        LeakyReLU-92         [1, 256, 128, 128]               0
        LeakyReLU-93         [1, 256, 128, 128]               0
        UNetBlock-94         [1, 768, 128, 128]               0
           Conv2d-95         [1, 256, 128, 128]       1,769,728
        LeakyReLU-96         [1, 256, 128, 128]               0
        LeakyReLU-97         [1, 256, 128, 128]               0
  ConvTranspose2d-98         [1, 128, 256, 256]         524,416
   InstanceNorm2d-99         [1, 128, 256, 256]               0
       LeakyReLU-100         [1, 128, 256, 256]               0
       LeakyReLU-101         [1, 128, 256, 256]               0
       UNetBlock-102         [1, 384, 256, 256]               0
          Conv2d-103          [1, 64, 256, 256]         221,248
       LeakyReLU-104          [1, 64, 256, 256]               0
       LeakyReLU-105          [1, 64, 256, 256]               0
 ConvTranspose2d-106          [1, 32, 512, 512]          32,800
  InstanceNorm2d-107          [1, 32, 512, 512]               0
       LeakyReLU-108          [1, 32, 512, 512]               0
       LeakyReLU-109          [1, 32, 512, 512]               0
       UNetBlock-110         [1, 160, 512, 512]               0
          Conv2d-111          [1, 32, 512, 512]          46,112
       LeakyReLU-112          [1, 32, 512, 512]               0
          Conv2d-113           [1, 3, 512, 512]             867
================================================================
Total params: 44,213,987
Trainable params: 44,213,987
Non-trainable params: 0
----------------------------------------------------------------
Input size (MB): 2359296.00
Forward/backward pass size (MB): 4777.00
Params size (MB): 168.66
Estimated Total Size (MB): 2364241.66
----------------------------------------------------------------
…
